…
rebuild TensorFlow with the appropriate compiler flags.\n\n\nAgora criamos o modelo do Keras\n\nmodel = keras.Model(inputs=input, outputs=output)\nmodel.summary()\n\n\n\nModel: \"model\"\n\n\n\n\n_________________________________________________________________\n\n\n\n\n Layer (type)                Output Shape              Param #   \n\n\n\n\n=================================================================\n\n\n\n\n input_1 (InputLayer)        [(None, 28, 28, 1)]       0         \n\n\n\n\n                                                                 \n\n\n\n\n rescaling (Rescaling)       (None, 28, 28, 1)         0         \n\n\n\n\n                                                                 \n\n\n\n\n conv2d (Conv2D)             (None, 28, 28, 32)        320       \n\n\n\n\n                                                                 \n\n\n\n\n max_pooling2d (MaxPooling2D  (None, 14, 14, 32)       0         \n\n\n\n\n )                                                               \n\n\n\n\n                                                                 \n\n\n\n\n conv2d_1 (Conv2D)           (None, 14, 14, 64)        18496     \n\n\n\n\n                                                                 \n\n\n\n\n max_pooling2d_1 (MaxPooling  (None, 7, 7, 64)         0         \n\n\n\n\n 2D)                                                             \n\n\n\n\n                                                                 \n\n\n\n\n conv2d_2 (Conv2D)           (None, 7, 7, 128)         73856     \n\n\n\n\n                                                                 \n\n\n\n\n max_pooling2d_2 (MaxPooling  (None, 3, 3, 128)        0         \n\n\n\n\n 2D)                                                             \n\n\n\n\n                                                                 \n\n\n\n\n conv2d_3 (Conv2D)           (None, 3, 3, 256)         295168    \n\n\n\n\n                                                                 \n\n\n\n\n max_pooling2d_3 (MaxPooling  (None, 1, 1, 256)        0         \n\n\n\n\n 2D)                                                             \n\n\n\n\n                                                                 \n\n\n\n\n flatten (Flatten)           (None, 256)               0         \n\n\n\n\n                                                                 \n\n\n\n\n dense (Dense)               (None, 128)               32896     \n\n\n\n\n                                                                 \n\n\n\n\n dense_1 (Dense)             (None, 10)                1290      \n\n\n\n\n                                                                 \n\n\n\n\n=================================================================\n\n\n\n\nTotal params: 422,026\n\n\n\n\nTrainable params: 422,026\n\n\n\n\nNon-trainable params: 0\n\n\n\n\n_________________________________________________________________\n\n\n\n\nVeja o número de parâmetros da primeira camada de convolução
…
appropriate compiler flags.\n\n\nVeja que a camada do TFHUB possui todos os pesos do MobileNet.\n\nmodel = keras.Model(inputs=input, outputs=out)\nmodel.summary()\n\n\n\nModel: \"model\"\n\n\n\n\n_________________________________________________________________\n\n\n\n\n Layer (type)                Output Shape              Param #   \n\n\n\n\n=================================================================\n\n\n\n\n input_1 (InputLayer)        [(None, 32, 32, 3)]       0         \n\n\n\n\n                                                                 \n\n\n\n\n rescaling (Rescaling)       (None, 32, 32, 3)         0         \n\n\n\n\n                                                                 \n\n\n\n\n resizing (Resizing)         (None, 224, 224, 3)       0         \n\n\n\n\n                                                                 \n\n\n\n\n keras_layer (KerasLayer)    (None, 1024)              3228864   \n\n\n\n\n                                                                 \n\n\n\n\n dropout (Dropout)           (None, 1024)              0         \n\n\n\n\n                                                                 \n\n\n\n\n dense (Dense)               (None, 10)                10250     \n\n\n\n\n                                                                 \n\n\n\n\n=================================================================\n\n\n\n\nTotal params: 3,239,114\n\n\n\n\nTrainable params: 10,250\n\n\n\n\nNon-trainable params: 3,228,864\n\n\n\n\n_________________________________________________________________\n\n\n\n\nAgora podemos compilar o modelo:\n\nmodel.compile(\n
…
